checkpoint/AMI-LF10.pth (torch, 657272 bytes, 2 tensors)

theta f4 [10]
00000000: 9267 c03e fab0 8e3d 0723 383e cfba 3d3e
00000010: a1a1 c43d fbd3 1d3d 5f37 7e3d b647 f93d
00000020: da71 713c 08a3 c03b
0.37579018 0.06967349 0.17982112 0.18528293 0.09601141 0.03853224 0.062064525 0.12171881
0.014736617 0.00587881

gamma f4 [10]
00000000: a0b6 8e3a d824 093b c096 b13b a29d 503b
00000010: d92a e43b 9423 ec3a 4e91 093c b729 31bc
00000020: b98b 503b 758d 18ba
0.0010888167 0.0020926502 0.005419582 0.0031832238 0.0069631157 0.0018015974 0.00839646 -0.010813168
0.0031821562 -0.00058194186
