checkpoint/AMI-10.pth (torch, 657272 bytes, 2 tensors)

theta f4 [10]
0.13154411 0.08150076 0.032651477 0.020014148 0.0071151657 0.048576724 0.049094044 0.13718806
0.15236558 0.12516831
00000000: 80b3 063e dfe9 a63d 8ebd 053d b6f4 a33c
00000010: 5626 e93b 63f8 463d d616 493d 077b 0c3e
00000020: b905 1c3e 1f2c 003e

gamma f4 [10]
-0.00022406636 0.00017515427 0.0009427779 0.0010266583 0.0015758652 0.0022825783 0.0023795452 0.0014026535
0.0051667923 0.004198562
00000000: 5bf3 6ab9 9ea9 3739 c124 773a f090 863a
00000010: 438d ce3a 4f97 153b 25f2 1b3b 3ed9 b73a
00000020: 324e a93b 1794 893b
