checkpoints/DCNN.pth (torch, 14097 bytes, 19 tensors)

conv1.weight f4 [12, 2, 25]
000000 c7 30 2f bd 4a 23 ef bd 6e a6 2c 3d 12 90 57 3d
       -0.042771127 -0.11676653 0.042150907 0.05262763
000010 e2 6d 95 3d c4 54 1e 3e 2c 54 a5 3c df 65 dc 3d
       0.07296349 0.15462023 0.020181738 0.10761618
000020 15 67 15 3e 45 23 c7 3b 5b 48 13 3e f1 8b 0d 3e
       0.14590104 0.0060772025 0.1438307 0.13822915
000030 bf 0c 1f 3e eb a4 28 3e fd ca 9c bd 89 c7 ee bd
       0.15532206 0.16469161 -0.076559044 -0.11659152
000040 04 34 e9 bc e3 04 03 be cc 37 27 3a b8 d7 1c 3d
       -0.028467186 -0.12794833 0.0006378859 0.038291663
000050 55 5a 24 be a0 9f 39 3d 7d 87 f0 bd f7 53 0b be
       -0.16050084 0.045318246 -0.11744592 -0.13606249
000060 e0 b0 b0 bb 87 2f 24 3e b5 29 56 bd 77 4a d9 3d
       -0.005392179 0.16033755 -0.05228587 0.10609906
000070 fe db 3e 3c 2a 33 f7 bd 1a 17 ed bc 6c 89 82 bc
       0.01164913 -0.12070306 -0.02894168 -0.015934668
000080 48 1d a6 3d 6b 61 a3 3d a4 f2 ea bd 55 7f 01 be
       0.08111054 0.079775654 -0.11472061 -0.1264623
000090 6a e9 91 bd 6e 0c 8c bd 16 7d cb 3d 63 14 2a bc
       -0.07124598 -0.06838308 0.099359676 -0.010380837
0000a0 a5 ae cb 3d ce 81 38 3e b3 ef b1 3d 47 2f 36 3c
       0.0994542 0.18018267 0.08688297 0.01111967
0000b0 7b 99 90 3d 7c 7a 90 bd 42 86 52 bd 7c 2d 85 bb
       0.07060524 -0.07054612 -0.05139757 -0.00406426
0000c0 df 39 08 3e 44 a0 40 3e 46 fc 8c 3d 57 93 59 bd
       0.13303326 0.18811136 0.06884055 -0.05311903
0000d0 40 94 05 bd 7d 2b ba bd bb 09 82 3c 19 6c 5a bd
       -0.032612085 -0.09090326 0.01587378 -0.053325746
0000e0 82 d4 eb 3d c7 71 dc bd c2 dc ca bd be 35 33 3d
       0.11515142 -0.10763889 -0.099053875 0.043752424
0000f0 c4 68 a2 3d b8 6e 11 bc e6 93 21 3e 45 24 3a 3e
       0.07930139 -0.008876495 0.15779075 0.18177898
000100 86 c6 25 3e 2d 64 e9 3d a9 16 41 3d 30 6f 6b bd
       0.16189012 0.1139606 0.04714075 -0.057479084
000110 1d c9 04 be d3 97 ba 3d 03 64 e0 bd a6 54 36 3d
       -0.12967344 0.091109894 -0.10956576 0.04451432
000120 48 39 b5 3c 95 41 b6 bd 19 d0 4a be 2b 77 95 3d
       0.02212204 -0.088992275 -0.19805945 0.0729812
000130 05 b4 b1 b8 46 c1 e4 3d cb d4 6d 3b d5 60 17 be
       -8.473549e-05 0.111696765 0.0036290165 -0.14783032
000140 74 d6 83 bc f8 d2 0c 3e 04 81 b0 bc c6 06 3c 3c
       -0.01609347 0.13752353 -0.021545894 0.011476224
000150 23 76 7d bd 21 33 20 bd 77 80 f3 bd 88 3a 0b be
       -0.061880242 -0.03911126 -0.11889737 -0.13596547
000160 bf 73 b2 3d d0 1c 86 3d ae d2 9b 3c 0e 67 1e bd
       0.08713483 0.06548464 0.019021358 -0.0386725
000170 77 ba a0 bd 9f 0b a6 3c 63 9c d4 bc 2d 40 9e 3c
       -0.07848065 0.020269213 -0.025953477 0.01931771
000180 22 25 11 3e 09 b3 ea 3d 4a 5a 77 3d c7 8b a9 ba
       0.14174321 0.114599295 0.06038884 -0.0012935334
000190 ae b3 c0 bd 87 a8 01 be 74 77 ca bd 55 a5 06 be
       -0.09409271 -0.12661944 -0.09886065 -0.13149007
0001a0 b4 d0 a4 bd 67 25 9f bd 54 a9 0d 3e a3 ca 8f 3d
       -0.080476195 -0.07770806 0.13834125 0.07021072
0001b0 ae 7d 18 3e 78 31 40 3d 19 fb 9c bd 25 53 35 bd
       0.14891693 0.046922177 -0.076650806 -0.044268746
0001c0 52 14 07 be b9 cb 53 3d 7b af 5d 3d fc 21 e8 bc
       -0.13191345 0.051707957 0.05412243 -0.028336518
0001d0 b6 c2 bf bd ad b0 46 3c 97 d4 61 bd 05 cf 17 3d
       -0.0936331 0.012127084 -0.055134382 0.037062664
0001e0 1d d4 cf bc 55 67 8b 3d 78 2c e6 bc e5 6b 4a bd
       -0.025369698 0.068068184 -0.028097376 -0.049419302
0001f0 fa 8a 7c 3d b5 ac 0c 3e 02 2a 80 bd 47 c1 a3 bd
       0.061655976 0.13737758 -0.06258012 -0.07995849
000200 34 c4 ac bd 40 72 ca bd 1b 77 cf 3d 59 6a 13 3e
       -0.0843586 -0.09885073 0.101301394 0.14396037
000210 77 46 9b bb eb 79 a4 bd 8f c7 ee 3d 4d 37 3f 3d
       -0.0047386247 -0.080310665 0.116591565 0.0466836
000220 1c 45 df 3a ac 46 9e bd 0c a0 25 3d da de 02 3d
       0.0017034146 -0.07728323 0.040435836 0.03195081
000230 57 ff e6 3d 9d f4 87 bc e8 3e fb 3c 2b 84 a5 3a
       0.11279171 -0.016596133 0.030669644 0.001262789
000240 0a 36 a7 3d 5d aa dc bb bd c2 6e bd 33 f0 e7 3d
       0.08164604 -0.006734176 -0.058291186 0.11325111
000250 9d ac 50 3d 44 55 3f be c8 41 6b 3b 9d 39 d0 bd
       0.050945867 -0.1868487 0.0035897363 -0.10167239
000260 e5 80 9c bd ec 5b 9a 3d 9a 55 4a 3d 9f 62 0a be
       -0.07641772 0.07537064 0.049398042 -0.13514183
000270 00 f1 73 3d ee 4a c2 bd b0 43 02 be 32 00 1a bd
       0.059556007 -0.09486948 -0.12721133 -0.037597843
000280 77 ca c8 3d c9 11 80 3b b3 cd 89 3d 10 17 03 be
       0.09804242 0.00390837 0.06728687 -0.12801766
000290 d1 7b 2f 3d dc b5 0a be ff 4f 83 bd 38 70 f7 bd
       0.04284269 -0.13545936 -0.064117424 -0.12081951
0002a0 1e c6 de 3d 37 7a 5f 3d bf ca 3c bd 46 46 0b be
       0.108776316 0.054559913 -0.04609179 -0.13601026
0002b0 31 3f 82 3d 65 98 b1 bd 9f c4 bf bd 03 c7 31 ba
       0.06359709 -0.08671645 -0.09363674 -0.0006781669
0002c0 93 85 c8 3c 4a 47 41 bd fd 16 4e 3d 93 79 06 3e
       0.024477756 -0.047187127 0.050314892 0.13132314
0002d0 57 d7 b7 3d 37 a9 e6 bd 37 60 a0 bd c6 65 0e bc
       0.0897662 -0.11262744 -0.078308515 -0.008691257
0002e0 98 f5 77 39 27 83 38 bd 7d e8 00 bd 4b c2 be 3d
       0.00023647246 -0.04504695 -0.031471718 0.09314402
0002f0 1c 19 3d 3c 94 db 43 bc f3 e3 0c bb c8 bd 7a 3c
       0.011541631 -0.011954207 -0.0021498173 0.015304036
000300 e3 c6 10 3d 71 aa 9f 3d 55 db aa 3c 05 ce 43 bc
       0.035345923 0.07796181 0.020856539 -0.011950974
000310 68 e9 c6 3d 0b e1 08 3e a4 66 9c bd 63 b2 e0 bd
       0.097124875 0.13367097 -0.07636765 -0.109715246
000320 36 ea ce bd 96 9b e8 bd 42 e5 0b be fb a1 f3 3d
       -0.10103266 -0.11357801 -0.13661674 0.1189613
000330 cd 8a b3 bd 02 04 81 3d bf c3 79 3d 63 e1 cf 3d
       -0.087667085 0.062995926 0.060977694 0.10150411
000340 d5 70 f3 3d 72 ec e8 bb 51 5f df 3d 9b 57 2a 3e
       0.118867554 -0.0071082646 0.10906852 0.16634981
000350 ae e3 cb bd 99 f3 95 3d 4d 19 49 be 7f 28 b9 3d
       -0.09955536 0.07321853 -0.19638558 0.09040927
000360 37 cf cb 3c e3 3e 02 3e ce ea f5 3c 3b 02 11 3d
       0.024879081 0.12719302 0.03001919 0.035402518
000370 b6 43 15 3e ed d2 c3 39 e2 50 24 3d 0d e3 00 bd
       0.14576611 0.0003735045 0.0401162 -0.031466532
000380 87 40 28 3e 75 5d de bd 1a 88 92 3c f0 36 05 be
       0.16430865 -0.10857669 0.017887164 -0.13009238
000390 14 f5 ba bd f7 b5 b9 3b 9e 93 0e be df d8 28 bd
       -0.09128776 0.005667444 -0.13923499 -0.04122245
0003a0 06 83 1c bd b8 57 a3 bd b3 69 0a 3e 2e 45 4e bc
       -0.03821089 -0.079757154 0.13516884 -0.012589736
0003b0 de ba 64 3d ed 4d 78 3c 08 66 1f bd 5f d7 bf bd
       0.055842273 0.015155298 -0.038915664 -0.09367251
0003c0 51 56 f5 3b dd 2b b9 bd 2f 85 5f 3c 92 51 ac bd
       0.0074870964 -0.090415694 0.013642593 -0.08413996
0003d0 70 44 ea 3d 9e 13 fa bd 81 1b 06 bd 3a 6f 9f 3d
       0.11438835 -0.12210773 -0.032741074 0.07784887
0003e0 42 28 5b bb 83 78 4d bc 6f 4d 57 bd 02 a8 f7 bd
       -0.0033440744 -0.012540939 -0.05256408 -0.12092592
0003f0 63 e1 7a bd 68 fa 71 3d 13 c0 e6 3d ce 4d e7 bd
       -0.0612501 0.059076697 0.11267104 -0.11294137

conv1.bias f4 [12]
000000 d5 dc 32 3d c2 76 6b 3d 9b 0f c7 bd 57 98 37 3b
       0.043667633 0.057486303 -0.097197734 0.0028014386
000010 4b e0 13 3e e4 a4 71 be 40 37 1a be 52 10 89 3d
       0.1444103 -0.23598057 -0.15060139 0.06692566
000020 4f ed 12 3e ca 19 a9 bd 9a a2 20 3e e3 ac fc 3c
       0.14348339 -0.08256872 0.15687028 0.030844158

conv2.weight f4 [6, 12, 15]
000000 bb b4 3b be 1a 4f 0f be eb 8d e0 bd 85 97 6c 3b
       -0.18330662 -0.13995019 -0.10964569 0.0036101055
000010 6f 2a 1a 3c ee 40 a8 bc dd f4 6a 3d 3e c4 07 3d
       0.009409531 -0.020538773 0.057362426 0.033146136
000020 dc fa 7f bd af f1 58 bd 22 90 58 3d 16 c8 d9 bc
       -0.062495098 -0.052964862 0.05287183 -0.026584666
000030 a9 e8 a2 bc b9 7c 80 3d 76 98 5b 3d 5c 6f 13 bd
       -0.019886332 0.06273789 0.053612195 -0.035994872
000040 32 62 3f bd 62 10 45 bd 91 a0 e8 bb 54 33 9f 3d
       -0.046724506 -0.048111327 -0.007099219 0.07773462
000050 56 30 3d 3d 37 b2 2f bd 30 11 51 3d a9 9f 68 3d
       0.046188675 -0.04289457 0.051041782 0.05679289
000060 13 e0 55 3c af 62 50 bd be 63 8b bd e4 85 f3 3c
       0.013053912 -0.050875362 -0.06806134 0.02972693
000070 23 33 99 bd 11 75 e3 bd 42 1b 56 3d 73 d7 22 bc
       -0.07480457 -0.11106313 0.05227209 -0.009939062
000080 a1 72 86 3d e7 97 78 3d 34 9c 97 3b 2b f5 c5 bc
       0.065648325 0.06069174 0.004626775 -0.024164757
000090 37 37 33 3d 24 1f cb 3c ed 34 91 3d 3f 64 5f 3c
       0.04375383 0.024795122 0.07090173 0.01363474
0000a0 f0 9d ce 3c 8a a5 2c 3d 28 7a 11 3c e9 a0 ff 3c
       0.025221795 0.042150058 0.008879222 0.031204658
0000b0 f0 eb 27 bc 4b c5 0c be f1 60 b8 3c f6 20 2a 3d
       -0.010249123 -0.13747136 0.022507163 0.04153534
0000c0 f2 90 23 3d e3 23 1b 3d 73 9f 4b 3d 01 79 2a bc
       0.039933152 0.03787602 0.04971261 -0.010404826
0000d0 24 70 6f 3d aa 5e 27 3d c0 2f 50 bc 48 f9 43 bc
       0.058456555 0.040861763 -0.012706697 -0.011961289
0000e0 98 83 ea bc c6 87 a7 bc c6 1a 3a 3d 7e 2d 37 bc
       -0.028627202 -0.020450484 0.04543569 -0.01118028
0000f0 f5 3c d9 3d cf cb 02 3e ba f0 9b 3d 67 b7 e7 bb
       0.1060733 0.1277306 0.07614274 -0.007071424
000100 67 bf 5d 3d c3 04 0c bd ea de 25 bc b5 97 9e 3d
       0.054137614 -0.03418423 -0.010123948 0.077437796
000110 c3 36 92 3d 75 c4 68 bc c5 40 a0 bc bf 84 da 3d
       0.07139351 -0.014206995 -0.019562135 0.106698506
000120 2b 43 48 3d 97 03 a7 3c ff 2b 05 3e db d2 cb bd
       0.04889218 0.020387454 0.13005064 -0.09952327
000130 fb 28 f8 bd 09 55 a7 bd f6 5e a0 bd e1 e7 b5 3c
       -0.121171914 -0.08170516 -0.07830612 0.022205295
000140 be 6c a4 3c a3 68 b0 bc 87 84 60 3d 9c ae 07 3c
       0.020071384 -0.02153427 0.054813888 0.008281376
000150 6e ab 09 39 67 de 28 bc f6 8e 08 3d b0 43 3a bd
       0.000131292 -0.010306931 0.033339463 -0.045474708
000160 d6 24 ce 3c 64 77 fd bc de e9 92 3d 68 33 94 3d
       0.02516405 -0.030940719 0.07173513 0.072363675
000170 15 5f ab 3c 10 80 66 3c 3a 9c 74 3c 63 85 a5 bc
       0.020919362 0.014068618 0.014929825 -0.020205205
000180 92 eb cf 3d a6 a7 b0 bb a8 5f 43 bd c7 cb 64 bd
       0.10152353 -0.005391079 -0.047698647 -0.0558584
000190 ba cc 61 bc af e4 06 3e 2a ab c2 3d 92 2f 58 bd
       -0.013781721 0.13173173 0.09505303 -0.05277974
0001a0 b1 b0 05 be 9f e5 0c 3e 07 99 eb 3d 81 23 66 bc
       -0.13055684 0.13759468 0.11503797 -0.014046551
0001b0 6a 27 9c 3c 84 8f ca bc 22 43 1d bd 5e 90 08 bd
       0.019061763 -0.024726637 -0.0383941 -0.033340804
0001c0 2d 49 91 bd 69 c4 88 bd e3 f8 d9 3c 56 4d 06 3d
       -0.07094035 -0.06678087 0.026607936 0.032788597
0001d0 6c 16 90 3d 90 4d 59 bd 8a 06 cc 3c 35 e4 89 bd
       0.07035527 -0.053052485 0.024905462 -0.0673298
0001e0 18 41 05 bd 8b 96 b2 bd 33 8f 7d bd ed 6e 90 bd
       -0.03253278 -0.0872012 -0.061904144 -0.070524074
0001f0 56 a5 6d 3d 58 74 34 3d ef e8 a7 3d 3b 28 59 3d
       0.058019005 0.044056267 0.081987254 0.053016882
000200 d9 1b c3 3d 63 82 bb bb d8 ac 46 bd c4 00 4e bd
       0.09526796 -0.0057223304 -0.04850468 -0.0502937
000210 21 b3 42 bd 31 ab 36 bc 54 32 ea 3c 81 f6 f1 bd
       -0.047534112 -0.011149214 0.028588451 -0.11814595
000220 28 01 30 3b 4f 5e d2 3b cc 0a 90 bd ff bb 1b bd
       0.0026856158 0.006419934 -0.07033309 -0.038021084
000230 0c dd c0 3c 0c e9 5d bb 40 0c 02 bd b9 e9 8d bd
       0.023542903 -0.003386083 -0.031749964 -0.06929345
000240 b6 f7 39 bd c5 7f 83 bd bd 88 c3 bc 02 ed d0 3d
       -0.04540225 -0.064208545 -0.023868913 0.10201456
000250 48 4c 65 3d 56 cd ad bb 9a 15 a9 bd b8 e0 a9 3c
       0.05598095 -0.005304019 -0.08256073 0.020737037
000260 1c 68 a2 3d b8 70 4f 3c b9 04 51 3d a7 c4 e4 3c
       0.079300135 0.012661152 0.051029895 0.027925802
000270 ce 23 e6 3c 35 b2 96 3c 24 f1 58 bc ec 81 67 bd
       0.028093245 0.018395523 -0.013241086 -0.056520388
000280 83 a0 91 bc 61 06 15 3d 79 4d bb 3c 11 8d 39 3c
       -0.017776733 0.036383037 0.02286409 0.011325137
000290 b6 2d 34 3a 10 ab e0 bc 37 c4 af 3c f0 a3 bb bd
       0.00068732665 -0.027425319 0.021455867 -0.09162128
0002a0 39 da 46 3c f1 c8 b6 bd cc 6a fd bd f8 21 ab bd
       0.012136989 -0.08925045 -0.123738855 -0.083560884
0002b0 fa ee 45 bd 4a f7 d3 bd 5c c7 87 bd e2 bc 8e bd
       -0.04832361 -0.10349901 -0.06629822 -0.0696962
0002c0 07 f5 cc 3c 09 f8 12 3c ea aa 4a 3d ce b8 b9 3d
       0.025019182 0.008970269 0.049479403 0.09068452
0002d0 04 85 08 bc fc 2f ba 3c c2 14 93 bd 8e 1c ea 3c
       -0.008332495 0.022727959 -0.071816936 0.028578069
0002e0 08 18 bd 3c 03 17 ba 3a c4 1b 74 bc 0e 78 cb bc
       0.023082748 0.0014197532 -0.014899198 -0.02483752
0002f0 01 24 e0 3c cd 10 3c bd ae 29 8e 3c d4 9c 3c 3d
       0.027360918 -0.04591446 0.017353859 0.046048
000300 2d 6c 9e 3d d4 92 50 bd 92 62 c2 3c 90 18 70 bd
       0.07735477 -0.050921276 0.023728643 -0.058617175
000310 ff f3 89 bd 80 32 5f 3b c9 b5 fd 3b 02 08 0c 3c
       -0.06735992 0.00340572 0.0077426177 0.008546831
000320 cf 62 69 3d e9 fe 67 3d 48 ca ef 3c b6 0d 72 3d
       0.056978997 0.056639586 0.02927126 0.059095107
000330 f3 91 9a 3c ca 26 ab 3b 68 ba 90 bd ed 85 c9 bc
       0.018868422 0.00522313 -0.07066804 -0.024599994
000340 7d ba 44 be ac 25 8c be 62 3c 9d bc 34 cd 40 3c
       -0.19211765 -0.2737249 -0.019193832 0.011767674
000350 52 f2 55 bd ce 2e d1 bd 31 c8 46 bd df b9 36 bd
       -0.052233048 -0.102140054 -0.04853076 -0.044610854
000360 13 c3 fa bc 36 38 3c 3e 7e 45 83 3d 99 33 94 3d
       -0.030610597 0.18380818 0.06409739 0.07236404
000370 25 63 3b 3c d0 27 ca bd 71 e8 98 bd 8d 2f c5 bd
       0.011437212 -0.09870875 -0.0746621 -0.0962821
000380 1f 98 b8 bd 02 3d 83 bd 3f 06 12 3d 6a 1a 50 3d
       -0.0901339 -0.06408121 0.035650488 0.05080644
000390 83 e3 f3 bc c2 5c 4e 3c 42 e9 08 3d 92 31 87 bd
       -0.029771572 0.012595357 0.033425577 -0.06601252
0003a0 dc 4b 3e 3d d6 67 8d bd c9 0d 8a bd 24 f0 9b bc
       0.046459064 -0.06904571 -0.067409106 -0.019035406
0003b0 1b ba 8d bc fe 38 70 3c 37 34 47 bd e4 53 8a 3c
       -0.017300656 0.0146620255 -0.04863378 0.016885705
0003c0 76 7f 78 bc 8c 33 0c bd 77 23 c4 ba 68 21 98 bd
       -0.015167108 -0.034228846 -0.0014964183 -0.07428247
0003d0 f2 5f 1b bd dc b9 93 3c 97 e5 1b 3d f3 66 39 3d
       -0.037933297 0.01803296 0.03806075 0.045264196
0003e0 9b cb a6 bd e2 eb d2 bc 53 66 92 bd a7 53 bb bc
       -0.081443034 -0.025747243 -0.07148423 -0.022867037
0003f0 99 d8 22 3d ec 5e f8 bd 2b 37 04 be 1e 55 3f bc
       0.039757345 -0.1212748 -0.1291167 -0.011678008

conv2.bias f4 [6]
000000 9a 1b a3 3a c1 35 a3 3c e5 5e e0 bd 54 50 8d bd
       0.0012444139 0.019923093 -0.109556 -0.06900087
000010 1c 66 cd bd 8c f3 36 3d
       -0.100292414 0.04466586

conv3.weight f4 [3, 6, 5]
000000 7f 0f 23 be 77 05 12 be 3b a7 c5 3c 8c 8b 2e 3e
       -0.1592388 -0.14259897 0.024127593 0.1704542
000010 8c 68 17 3e b7 7e 4a be 40 21 65 be 23 4d 7b bd
       0.14785975 -0.197749 -0.22375965 -0.06135286
000020 09 e0 26 3e ac 8f c5 3d bf ed bd bd e0 0c 46 be
       0.162964 0.09646544 -0.09273862 -0.19340849
000030 62 61 8c 3d 38 13 c8 3d de fb 8b bd a5 c3 15 3c
       0.06854512 0.09769291 -0.06835149 0.009140884
000040 74 6b 69 3e 99 8a 15 3e d5 2b 5d 3d 50 b9 0c bd
       0.22794896 0.14603652 0.05399688 -0.034356415
000050 8f 02 d2 3d 47 c8 76 3c 17 ea 8b bd 4f f7 11 3e
       0.10254394 0.015062398 -0.068317585 0.14254497
000060 94 29 eb 3d f7 c8 8f be 5d 76 c6 3d be 8f 8b 3d
       0.1148254 -0.28083012 0.09690545 0.06814526
000070 1a a2 d6 3d f6 d3 08 be ff bc 0d 3e 26 5f b9 3d
       0.10480137 -0.13362107 0.13841628 0.09051351
000080 40 55 e8 bd fc 51 95 bd d7 ef 20 be 77 9c 4d 3d
       -0.11344385 -0.07291028 -0.15716492 0.050198045
000090 e4 a0 44 bc 97 48 0f 3e 3d cb 65 bd 42 3d da bd
       -0.01200125 0.13992535 -0.056102026 -0.10656215
0000a0 5f 89 2c 3e 5e 65 1d 3e a2 74 01 3e c6 81 82 bd
       0.16849278 0.153707 0.12642148 -0.063724086
0000b0 8b 08 37 bd dc 6c 9f bd c6 9d c2 3d 4d 83 46 3e
       -0.04468588 -0.07784435 0.09502749 0.19386025
0000c0 fb 62 55 3c 58 87 93 bd f7 3c c3 3c fe af b9 bd
       0.013024087 -0.07203549 0.023832781 -0.09066771
0000d0 e3 6e 27 3e 7b 1c 33 be ae 6b 01 3e f1 b0 7b 3e
       0.16350894 -0.17491333 0.12638733 0.24579217
0000e0 f3 d0 40 bc 6a 28 a8 bd 02 2d bd bc b9 b5 55 bc
       -0.011768567 -0.08210833 -0.02309275 -0.013043814
0000f0 ef 32 98 3d b6 22 bc 3d 04 b9 ce bd fc 99 95 bd
       0.0743159 0.09186308 -0.10093883 -0.07304761
000100 f3 68 c1 bb ee 2a 20 be 7c 54 4f bd e5 4b 32 be
       -0.0059024035 -0.15641376 -0.05061768 -0.17411764
000110 72 0e 45 3a d9 d7 cc 3d 90 b2 a6 3d 83 46 4f 3e
       0.0007517106 0.10002107 0.08139527 0.20241742
000120 10 4c 11 3e 2d f7 53 3e c2 b1 8e 3c 0d ce a9 bc
       0.14189172 0.20699759 0.017418746 -0.020728135
000130 1e 2b 32 be 84 1e aa 3c 7f 4a 82 bc 36 69 b9 bd
       -0.1739926 0.020766504 -0.015904663 -0.090532705
000140 15 55 24 3e a1 e5 67 ba 1a ef 5d 3d 60 4f db 3c
       0.16048081 -0.0008846168 0.054183103 0.026771247
000150 71 db b0 be 0f 29 e2 3c a1 0e 47 3e 9b 2f 38 3d
       -0.3454242 0.027607469 0.19439174 0.044967275
000160 33 ad f3 3d 7c 44 d0 bd
       0.118982695 -0.10169312

conv3.bias f4 [3]
000000 c2 e0 00 3e 69 eb 66 3d ca c5 ea 3d
       0.12585738 0.05637685 0.114635065

conv4.weight f4 [1, 3, 3]
000000 c2 40 8a 3d a4 79 39 3e 54 a5 a9 be cb a7 86 bc
       0.06750633 0.18112808 -0.33133948 -0.016437432
000010 cd 3e 2d 3c 5a 33 8c be 04 d3 7c be 5b fa 78 3e
       0.010574055 -0.27382928 -0.24689871 0.24314253
000020 7b cf 12 3e
       0.1433696

bn1.weight f4 [12]
000000 02 d1 73 3f 7f 49 85 3f 3f 17 65 3f 78 3e 7d 3f
       0.95240796 1.0413054 0.89488596 0.98923445
000010 97 be 6e 3f bc 58 83 3f 71 e5 7c 3f d7 f2 7d 3f
       0.9325957 1.0261455 0.987876 0.9919867
000020 da fa 80 3f 78 bf 86 3f 78 5f 61 3f 5b 07 86 3f
       1.0076554 1.0527182 0.880363 1.0470995

bn1.bias f4 [12]
000000 91 1f b3 bd a7 ee 0f be cf c1 67 bd 90 c9 a7 bc
       -0.08746255 -0.14055882 -0.056581315 -0.020481855
000010 4f 23 b2 bd 4b 78 ca 3d b1 1b a8 bd 9f 58 7d bd
       -0.08698141 0.09886225 -0.08208407 -0.061852094
000020 98 06 79 3c 31 31 d5 bd 3e 13 0b 3b 13 41 3c 3c
       0.015199326 -0.10409773 0.0021221186 0.011490124

bn1.running_mean f4 [12]
000000 d8 27 2e 3e a2 6e df 3d 2c c0 9d 37 72 bd 58 36
       0.17007387 0.109097734 1.8805345e-05 3.229678e-06
000010 9d 62 a4 3e 43 60 b1 3c fc e0 40 3d 59 9a 38 3e
       0.32106486 0.021652346 0.04708956 0.18027629
000020 e6 ab 54 3e 94 b1 f0 3c a4 98 51 3e 69 88 80 3d
       0.20768699 0.02938155 0.20468384 0.06276018

bn1.running_var f4 [12]
000000 7d 8f 4e 3d 5c 5d 79 3c 48 0b 8e 35 af d3 0f 32
       0.05042981 0.0152200125 1.0583108e-06 8.371827e-09
000010 2f 1a 3b 3d 3a ec 3e 3b f0 f9 3e 3c 5a 0f 2e 3d
       0.045679267 0.0029132501 0.011656269 0.04249511
000020 40 40 a5 3b 67 85 c5 3b 7b 3a 0e 3c b9 a2 ad 3b
       0.0050430596 0.0060278657 0.008680935 0.005298939

bn2.weight f4 [6]
000000 64 cd 73 3f 3d e4 8c 3f c2 70 76 3f 8a 67 82 3f
       0.95235276 1.1007153 0.96265805 1.0187848
000010 55 69 7b 3f 9f 50 87 3f
       0.982076 1.0571479

bn2.bias f4 [6]
000000 fb ef 84 bd 4a 04 9c 3d e4 b5 81 bc c0 7c 4c 3c
       -0.06491085 0.076180056 -0.015833803 0.012480915
000010 01 f6 9e bc c7 0e a2 bc
       -0.019404413 -0.019782437

bn2.running_mean f4 [6]
000000 c0 7e 1b 3e a6 bc 88 3f e5 c9 78 3e c8 9a 85 3e
       0.1518507 1.0682571 0.24295767 0.2609465
000010 f4 b2 25 3f 7c f6 a9 3e
       0.64726186 0.33195865

bn2.running_var f4 [6]
000000 aa 7c 94 3d 5a b3 27 3f 1f 54 85 3e 23 6b a2 3e
       0.0725034 0.65508044 0.26040742 0.31722364
000010 6f 77 99 3f ea 8e df 3e
       1.1989573 0.43663722

bn3.weight f4 [3]
000000 05 45 81 3f f2 e2 65 3f d5 41 72 3f
       1.0099188 0.89799416 0.946317

bn3.bias f4 [3]
000000 12 30 01 bd 35 c6 99 bb 14 d1 4e 3c
       -0.031539984 -0.0046928176 0.01262309

bn3.running_mean f4 [3]
000000 81 7a b6 3e 23 8f 67 3e 7f f2 bd 3e
       0.35640338 0.22613196 0.37099072

bn3.running_var f4 [3]
000000 7f 66 01 3f be 94 23 3e ae 17 0c 3f
       0.5054702 0.1597471 0.5472363
